…
base_uri":"https://localhost:8080/"},"id":"xaYilPXZPZgP","executionInfo":{"status":"ok","timestamp":1710585193173,"user_tz":-540,"elapsed":12,"user":{"displayName":"박민호","userId":"13332700724784488473"}},"outputId":"927ffb90-0da8-45e2-9d87-9fefd9ac7c10"},"execution_count":7,"outputs":[{"output_type":"stream","name":"stdout","text":["Model: \"sequential\"\n","_________________________________________________________________\n"," Layer (type)                Output Shape              Param #   \n","=================================================================\n"," conv2d (Conv2D)             (None, 28, 28, 32)        320       \n","                                                                 \n"," max_pooling2d (MaxPooling2  (None, 14, 14, 32)        0         \n"," D)                                                              \n","                                                                 \n"," conv2d_1 (Conv2D)           (None, 14, 14, 64)        18496     \n","                                                                 \n"," max_pooling2d_1 (MaxPoolin  (None, 7, 7, 64)          0         \n"," g2D)                                                            \n","                                                                 \n"," flatten (Flatten)           (None, 3136)              0         \n","                                                                 \n"," dense (Dense)               (None, 100)               313700    \n","                                                                 \n"," dropout (Dropout)           (None, 100)               0         \n","                                                                 \n"," dense_1 (Dense)             (None, 10)                1010      \n","                                                                 \n","=================================================================\n","Total params: 333526 (1.27 MB)\n","Trainable params: 333526 (1.27 MB)\n","Non-trainable params: 0 (0.00 Byte)\n","_________________________________________________________________\n"]}]},{"cell_type":"markdown","source":["모델 파라미터의 개수를 계산해보자. 첫 번째 합성
…
